…
[17:14:42.659098] Mixup is activated!
[17:14:43.621501] Loading checkpoint from https://dl.fbaipublicfiles.com/mae/pretrain/mae_pretrain_vit_base.pth
[17:14:43.622123] Error loading checkpoint from https://dl.fbaipublicfiles.com/mae/pretrain/mae_pretrain_vit_base.pth: [Errno 2] No such file or directory: 'https://dl.fbaipublicfiles.com/mae/pretrain/mae_pretrain_vit_base.pth' 
 Loading from torch hub ...
[17:14:47.029769] Loading checkpoint from assets/models/vitbase_audiomae_as2m.pth
[17:14:52.282402] Model = AVClassifier(
  (encoder): DeepAVFusion(
    (image): ViT(
      (patch_embed): PatchEmbed(
        (proj): Conv2d(3, 768, kernel_size=(16, 16), stride=(16, 16))
        (norm): Identity()
      )
      (blocks): ModuleList(
        (0-11): 12 x Block(
          (norm1): LayerNorm((768,), eps=1e-06, elementwise_affine=True)
          (attn): Attention(
            (qkv): Linear(in_features=768, out_features=2304, bias=True)
            (q_norm): Identity()
            (k_norm): Identity()
            (attn_drop): Dropout(p=0.0, inplace=False)
            (proj): Linear(in_features=768, out_features=768, bias=True)
            (proj_drop): Dropout(p=0.0, inplace=False)
          )
          (ls1): Identity()
          (drop_path1): DropPath(drop_prob=0.200)
          (norm2): LayerNorm((768,), eps=1e-06, elementwise_affine=True)
          (mlp): Mlp(
            (fc1): Linear(in_features=768, out_features=3072, bias=True)
            (act): GELU(approximate='none')
            (drop1): Dropout(p=0.0, inplace=False)
            (norm): Identity()
            (fc2): Linear(in_features=3072, out_features=768, bias=True)
            (drop2): Dropout(p=0.0, inplace=False)
          )
          (ls2): Identity()
          (drop_path2): DropPath(drop_prob=0.200)
        )
      )
      (norm): LayerNorm((768,), eps=1e-06, elementwise_affine=True)
    )
    (audio): ViT(
      (patch_embed): PatchEmbed(
        (proj): Conv2d(1, 768, kernel_size=(16, 16), stride=(16, 16))
        (norm): Identity()
      )
      (blocks): ModuleList(
        (0-11): 12 x Block(
          (norm1): LayerNorm((768,), eps=1e-06, elementwise_affine=True)
          (attn): Attention(
            (qkv): Linear(in_features=768, out_features=2304, bias=True)
            (q_norm): Identity()
            (k_norm): Identity()
            (attn_drop): Dropout(p=0.0, inplace=False)
            (proj): Linear(in_features=768, out_features=768, bias=True)
            (proj_drop): Dropout(p=0.0, inplace=False)
          )
          (ls1): Identity()
          (drop_path1): DropPath(drop_prob=0.200)
          (norm2): LayerNorm((768,), eps=1e-06, elementwise_affine=True)
          (mlp): Mlp(
            (fc1): Linear(in_features=768, out_features=3072, bias=True)
            (act): GELU(approximate='none')
            (drop1): Dropout(p=0.0, inplace=False)
            (norm): Identity()
            (fc2): Linear(in_features=3072, out_features=768, bias=True)
            (drop2): Dropout(p=0.0, inplace=False)
          )
          (ls2): Identity()
          (drop_path2): DropPath(drop_prob=0.200)
        )
      )
      (norm): LayerNorm((768,), eps=1e-06, elementwise_affine=True)
    )
    (fusion_blocks): ModuleList(
      (0-11): 12 x FusionBlock_FactorizedAVInteractions(
        (norm1_mm): LayerNorm((768,), eps=1e-05, elementwise_affine=True)
        (norm1_aud): LayerNorm((768,), eps=1e-05, elementwise_affine=True)
        (norm1_img): LayerNorm((768,), eps=1e-05, elementwise_affine=True)
        (attn): CrossAttention_FactorizedAVInteractions(
          (attn_v): CrossAttention(
            (q): Linear(in_features=768, out_features=768, bias=True)
            (kv): Linear(in_features=768, out_features=1536, bias=True)
            (attn_drop): Dropout(p=0.0, inplace=False)
            (proj): Linear(in_features=768, out_features=768, bias=True)
            (proj_drop): Dropout(p=0.0, inplace=False)
          )
          (attn_a): CrossAttention(
            (q): Linear(in_features=768, out_features=768, bias=True)
            (kv): Linear(in_features=768, out_features=1536, bias=True)
            (attn_drop): Dropout(p=0.0, inplace=False)
            (proj): Linear(in_features=768, out_features=768, bias=True)
            (proj_drop): Dropout(p=0.0, inplace=False)
          )
          (q): Linear(in_features=768, out_features=192, bias=True)
          (k): Linear(in_features=1536, out_features=192, bias=True)
          (v): Linear(in_features=1536, out_features=768, bias=True)
          (attn_drop): Dropout(p=0.0, inplace=False)
          (proj): Linear(in_features=768, out_features=768, bias=True)
          (proj_drop): Dropout(p=0.0, inplace=False)
        )
        (drop_path): DropPath(drop_prob=0.200)
        (norm2): LayerNorm((768,), eps=1e-05, elementwise_affine=True)
        (mlp): Mlp(
          (fc1): Linear(in_features=768, out_features=768, bias=True)
          (act): GELU(approximate='none')
          (drop1): Dropout(p=0.0, inplace=False)
          (norm): Identity()
          (fc2): Linear(in_features=768, out_features=768, bias=True)
          (drop2): Dropout(p=0.0, inplace=False)
        )
      )
    )
    (fusion_norm): LayerNorm((768,), eps=1e-05, elementwise_affine=True)
  )
  (image_head): Linear(in_features=768, out_features=310, bias=True)
  (audio_head): Linear(in_features=768, out_features=310, bias=True)
  (fusion_head): Linear(in_features=768, out_features=310, bias=True)
)
[17:14:55.862823] Loaded pre-trained checkpoint: /home/wiss/zverev/DeepAVFusion/checkpoints/deepavfusion_vitb_vggsound_ep200/checkpoints/checkpoint_latest.pth
[17:14:55.881053] criterion = SoftTargetCrossEntropy()
[17:14:56.038800] Loading /home/wiss/zverev/DeepAVFusion/checkpoints/deepavfusion_vitb_vggsound_ep200/finetune_vggsound/checkpoints/checkpoint_latest.pth
…
